…
Following model trained from the collected data ROS2-based Time synchronous data collection node deploying a trained model in a node Data preprocessing for training Data normalization Data augmentation Splitting data into training set and test set Writing/Reading data in HDF5 format Deep Learning model training: Train a model using Keras with TensorFlow backend Training Details # Network Architecture # The network has 559,419 parameters and consists of 9 layers, including 5 convolutional layers, 3 fully connected layers, and an output layer. Layer (type) Output Shape Param # lambda_1 (Lambda) (None, 70, 320, 3) 0 conv2d_1 (Conv2D) (None, 33, 158, 24) 1824 conv2d_2 (Conv2D) (None, 15, 77, 36) 21636 conv2d_3 (Conv2D) (None, 6, 37, 48) 43248 conv2d_4 (Conv2D) (None, 4, 35, 64) 27712 conv2d_5 (Conv2D) (None, 2, 33, 64) 36928 dropout_1 (Dropout) (None, 2, 33, 64) 0 flatten_1 (Flatten) (None, 4224) 0 dense_1 (Dense) (None, 100) 422500 dense_2 (Dense) (None, 50) 5050 dense_3 (Dense) (None, 10) 510 dense_4 (Dense) (None, 1) 11 Hyperparameters # Learning rate: 1e-04 Learning rate decay: None Dropout rate: 0.5 Mini-batch size: 128 Epochs: 30 Optimization algorithm: Adam Loss function: Mean squared error Training/Test set ratio: 8:2 Dataset # Number of training data: 48,624 labeled images Number of validation data: 12,156 labeled images Center Image # Left Image # Right Image # Original Image # Cropped Image # Data Distri
…
